LeNet/Lenet.pth (torch, 487495 bytes, 10 tensors)

conv1.weight f4 [16, 3, 5, 5]
00000000: 61f4 bf3c cca6 08be 8628 94bc b780 2f3e
00000010: 1985 7cbd 61f4 483e 29ab 1cbd 8eea 59be
00000020: c4c8 583e d40a c23c bb37 763e 49ca 77be
00000030: b407 80be 0531 853e eca8 3a3d c0a1 303e
00000040: 507e efbd e7f4 92be 7bdb 083e cfb5 db3d
00000050: 793d a53d 4fea 32bd af04 43be 08af b73d
00000060: 54ba bbbd 7317 fbbc 9886 24be 82a0 21be
00000070: 7e75 ee3d 702b 103d 68d6 243d c673 12be
00000080: 9ee7 7abe 0585 3d3e 612d c9bc f00f 873e
00000090: 73c0 c0bc 261f 6cbe dd27 ff3d d258 223e
000000a0: aff2 943d 4afc d6bd 31bd 94be b8c8 b33d
000000b0: f7ea 7ebb a452 393e b877 233d 2f64 32be
000000c0: 0b2e 7abd c928 803d f3fe f33d fb39 2a3d
000000d0: 0cad 00be d41d 993c 82dd c33c 76e4 b23d
000000e0: 04d9 d2bd 06e5 19be 481c 193e 28bf 81bd
000000f0: b719 163e 4bc0 fbbd 304e 38be 608a f73d
00000100: 8a31 64bd fab9 533e 0f8d 0cbd 200f 23be
00000110: 5512 253e 51f5 a2bd cc0c 1d3e 7602 d2bd
00000120: 5741 09bd 2ccb 323d 9c2d 973d aa01 933d
00000130: 7090 2d3d d4c4 113d 2002 363d 3484 08bd
00000140: d05f 52bd ea0f 8abd 9774 0a3d a6ee 543d
00000150: 4102 8d3d b540 b4bd c308 f7bd aa10 3e3c
00000160: 15ba d1bd 266d 50bb 17c9 463d 5ff3 67bd
00000170: 3ebe 65bd 0d23 37bd 1dd4 213d e559 13be
00000180: 0c5e f2bb 3cbb eebd d647 b73d 4077 db3c
00000190: 1159 6f3c 857e 31be e53e 72bd 6ccf 39be
000001a0: c2c2 bcbd 2393 733d 35d9 f3bd 45d8 ebbd
000001b0: fd1d 15be 207c adbd c129 d6bd 3904 2a3d
000001c0: 859e 1abe 7070 2abd 9725 ad3d bc16 e9bd
000001d0: 8559 44bc 9ea4 3ebe bbb4 29bd 25f2 ef3d
000001e0: 5f12 20bd b81a 89bb 220e 56bc a06f df3c
000001f0: 125d 563e 5a98 a63d 73f7 9e3d 7c69 cb3c
00000200: 9c6a 84bd 896d 90bd 40df ad3d ce5c 853d
00000210: 3438 9e3d f22d 043d e12a 243d 96f3 c03d
00000220: e6f1 8c3d b1b9 893d 4919 babd 7133 5f3c
00000230: 00aa e6bc 51e6 623d 36e5 f0bb c5dc ccbc
00000240: 37ae 463d 574c b43d 5ee1 6bbd eebe 95bd
00000250: ff6c 01bc 6e25 4e3e b32b 9a3d dda2 ea3d
00000260: 8a24 adbd c551 66bd b950 893d 68a7 163e
00000270: 4d4c 983c 49b9 26bc 03d1 3bbe 0de4 a23a
00000280: 2d97 8d3d 13a6 d03a bced f6bc 12eb a7bd
00000290: 4c93 74bd 5b67 2c3d 136f 6f3d 4dc4 e43d
000002a0: bb51 ccbc 587e e0bd 2593 963d 9652 94bd
000002b0: 1821 af3d 9948 ca3d 3ac0 d4bd c7ce 343d
000002c0: 7cee 163c 3a7f f9bd 17b7 aabd e3c8 ac3b
000002d0: 99ee 31bc 1d01 023e e173 983c 7a8f 98bd
000002e0: d41d 6ebd e389 153e 2f18 923d 773c 473d
000002f0: fa7a 7fbd 974d 4dbe 3062 c636 c465 b6bb
00000300: f499 833d 5e81 82bc 4355 0ebe 4198 b93b
00000310: 5555 b33d 7864 34bd 0adb 363d 6e33 bbbd
00000320: 86fb 0f3e 7278 2a3d cf6f 67bd 3c69 a7bd
00000330: 5b59 13be 194c 0e3e 0f9f 353d 6457 8abd
00000340: 9e43 debd fb58 65bd 2111 1f3e 9109 ee3d
00000350: 4ca7 bb3d b9a9 37be cd0c 41be b283 f83d
00000360: e862 213e 866b 0d3d 1ed1 1dbd b211 4abe
00000370: bcef 0a3d 29c5 963b 5e55 173e f60e 51bd
00000380: 7c5c d1bc 4b9e fabc 45b0 87bd df83 0cbe
00000390: 2c23 debc fc49 5d3d a037 27be 0d6c 113e
000003a0: f9ca a53d 6c3b 7cbe 06e8 00be 1ea5 34be
000003b0: 8578 563d 539c 49bd b60e 333d 7468 ffbd
000003c0: 5a2a b13d 8cd9 b6bc 4559 0cbe 586a 203d
000003d0: a44e 713d 2780 8a3d d78b 543d 5371 adbc
000003e0: f916 27bc c510 43bc 29f2 a7bc 65cd f93d
000003f0: 2028 f93d 04de 19bd c6e3 103d 8da2 c6bd
0.023431959 -0.13344878 -0.01808573 0.17138945 -0.06165037 0.19624473 -0.03824917 -0.21280882
0.21170336 0.023686804 0.24044697 -0.2419826 -0.25005877 0.2601396 0.045571253 0.17249203
-0.11694014 -0.2870247 0.13364975 0.107280366 0.080683656 -0.043680485 -0.19044755 0.089689314
-0.09166399 -0.03065083 -0.16066968 -0.15783885 0.116435036 0.035197675 0.040243536 -0.14301977
-0.24502417 0.18507774 -0.024557771 0.26379347 -0.023529267 -0.23058757 0.12458775 0.15854195
0.07272851 -0.10497339 -0.29050592 0.087785184 -0.0038897374 0.18097931 0.039909095 -0.1742103
-0.061079066 0.06257779 0.11913862 0.0415592 -0.12566012 0.018690981 0.023909334 0.08734982
-0.10295299 -0.15028772 0.14952195 -0.06335288 0.14658247 -0.12292536 -0.17998576 0.1208694
-0.055711307 0.20676413 -0.03431421 -0.15923738 0.16120274 -0.07956947 0.15336913 -0.10254376
-0.03350958 0.04365079 0.07381746 0.07178052 0.042374074 0.0355881 0.04443562 -0.033329204
-0.051360905 -0.067413166 0.033802595 0.051985405 0.068851955 -0.088014044 -0.12062218 0.011600653
-0.102405705 -0.0031803339 0.048531618 -0.05662858 -0.056089632 -0.04471116 0.039508928 -0.14389761
-0.007396465 -0.11656806 0.089492485 0.026790261 0.014608637 -0.1733342 -0.059142012 -0.18145531
-0.092168346 0.059466492 -0.11906663 -0.115158595 -0.14562221 -0.084709406 -0.10457183 0.041507933
-0.15099533 -0.041611135 0.08454435 -0.11381289 -0.011984234 -0.18617484 -0.041432124 0.11716107
-0.03908002 -0.0041840933 -0.013064893 0.027274907 0.20933941 0.081345275 0.07762041 0.024830572
-0.064656466 -0.07052142 0.08489847 0.06511842 0.07725564 0.03227038 0.040079955 0.0942146
0.06882076 0.06724871 -0.09086854 0.013623104 -0.028157234 0.055395428 -0.007351543 -0.025007615
0.048505988 0.08803623 -0.057587974 -0.073118076 -0.007899522 0.20131466 0.07527866 0.11456845
-0.08454235 -0.056230325 0.0670485 0.14712298 0.01859107 -0.010176011 -0.1834145 0.0012427584
0.069136 0.0015918635 -0.030142657 -0.08199133 -0.059710786 0.042090755 0.058455538 0.11170254
-0.024941316 -0.10961598 0.07352284 -0.072423145 0.08551234 0.09877128 -0.10388227 0.04414251
0.009212133 -0.1218247 -0.08335703 0.005272971 -0.010860109 0.12695737 0.018609943 -0.07449241
-0.058133915 0.14603381 0.07133519 0.04864165 -0.06237314 -0.2004913 5.9122904e-06 -0.0055663306
0.064258486 -0.015930828 -0.13899712 0.005663902 0.0875651 -0.044041127 0.044642486 -0.09140669
0.14060792 0.04161877 -0.056503113 -0.08174369 -0.14389555 0.13896216 0.044341143 -0.0675495
-0.10852741 -0.05599306 0.15533878 0.116229184 0.09162769 -0.17935838 -0.1885254 0.12134494
0.15760386 0.03452637 -0.038529508 -0.19733313 0.033920035 0.00460114 0.14778659 -0.05103966
-0.025556795 -0.030593058 -0.066254176 -0.1372218 -0.02711638 0.054025635 -0.16329813 0.14201374
0.080953546 -0.24632043 -0.1258851 -0.17641112 0.05236103 -0.049221348 0.0437152 -0.12471095
0.08650656 -0.022320531 -0.13705929 0.039163917 0.05891289 0.06762724 0.051891174 -0.021172201
-0.010198348 -0.011905854 -0.020501213 0.12197379 0.12165856 -0.037565246 0.03537347 -0.09698973

conv1.bias f4 [16]
00000000: 467a a7bd 5a1a a5be 8194 e5bd 80b5 37bb
00000010: 1ae8 6cbd b6bc 1bbe 0d49 1e3e afb5 ccbd
00000020: 8acc fdbc 0fdd e4bd 445f a43d adc5 1cbe
00000030: 1ac0 c1bd 7cdf 8cbe 10ad e0bd ebd1 203c
-0.08177619 -0.32246667 -0.112099655 -0.0028031766 -0.057838537 -0.15208706 0.15457554 -0.09995591
-0.03098132 -0.11174976 0.08025983 -0.15309782 -0.094604686 -0.27514255 -0.10970509 0.009815673

conv2.weight f4 [32, 16, 5, 5]
00000000: 76a0 acbc eb01 6cbd 6934 cebc 1959 f1bd
00000010: 33b7 b3bd 72e4 243d 1c76 293d 1103 bbbd
00000020: 9444 a5bd ebdc 7cbd fbac 153e f323 223e
00000030: de44 a3bd 8f74 3bbe de74 15bd 52d1 eb3d
00000040: 1e1c 89bc 33dc 0c3e d63f 05be 064f 19be
00000050: 7a95 cc3d c742 c43a 32e1 003e 7b9f 9a3d
00000060: d8fd 69bd 23ee b53d af84 15bd c7ef 29bd
00000070: 1583 21be c734 54be 5afd 1b3e a7a4 99bd
00000080: 81ed 78bd 3b03 30be 5063 1abe 6fd8 c13d
00000090: a151 ba3c 2c33 86bd 2966 58be e933 5abe
000000a0: a447 2b3e 0584 c53d 7a4e 043a 77c6 0fbe
000000b0: 83bd 40be 978d 193e d6af e73d 10ae c6bc
000000c0: 75c0 dfbd 9f3f 03be 3362 033a 7b96 cd3d
000000d0: 0efd f53c 78b9 e43c 6459 9dbd 0af1 763d
000000e0: b724 9239 21b7 033e 5a4c 2abb 057b 073d
000000f0: 083d b73d 3b6c c2bc f62a e43b aa48 383c
00000100: 8794 833c f4a7 433d 3831 ae3d c76e 193d
00000110: 7408 46bd 01db 5fbd 70b6 58bd d6d0 813d
00000120: e717 243d 6a12 eebc 37cf 3ebd c1bc 6bbc
00000130: d0dd 7a3d 477a 9a3d 46aa bd3d 78b9 f13c
00000140: 24b2 6f3d 5b59 42bc 791b d93d 02c6 3a3d
00000150: 2c2b 173c 919e 9abc 84b0 9839 44f7 e73c
00000160: 6c9d 0bbd c4c4 05bd 787a debc d6d5 6fbd
00000170: 29c7 793d 38db 853c 492d 643c 5312 fbbd
00000180: 36b5 5b3d 5371 14bd 0751 e43c 4bec 53bd
00000190: 645c 093e 912d 06be 5a53 5ebe 2651 4cbe
000001a0: 11d9 c3bd b877 983e 4767 6cbd 9855 5bbe
000001b0: d8d2 47be 5f60 29be bea2 cc3e 183c ed3d
000001c0: a77d dbbc 4985 1abe 56fb 05be 9943 c43e
000001d0: a5e6 be3d 772e f43b d27b 36be 9449 46be
000001e0: 0241 943e 6a7c d93d c1ce afbd 6701 fbbd
000001f0: c997 8fbe fbc8 f5bc 4203 eb3c 5725 383c
00000200: 58fb 3dbd ce25 0ebe a2c8 7c3c ce5b 523c
00000210: de62 d73c 2a14 32bc b938 c6bd 30e0 a03c
00000220: 17c1 0fbe 5c8e 89bd 3dac 8a3d 0edb 14bd
00000230: fb27 dc3c 1f53 76bc a75a 07be b772 9fbd
00000240: cb99 37bd a657 6ebc d771 3ebc a73d abbc
00000250: db57 093e 2897 c53d d354 5a3d 4d6d 17ba
00000260: 9878 06be c5e5 61be 676f aebd 9fd6 253d
00000270: a13f f6bc 0437 28be aa63 26be 10d3 f4bd
00000280: 5073 c23d 2fb3 dcbc b619 e4bd e53d d2bd
00000290: 7b21 2ebe 789e 293e 7452 f53b 226f 2bbe
000002a0: c2b0 3fbe 6c31 5abe a6ff 2f3e 4b91 483d
000002b0: 53f0 dbbd d668 94be abfd b0be 37fa 713d
000002c0: 8f89 8e3d 9d5d 1dba 784e 9dbc 1320 19bd
000002d0: 63ae 8b3d dec0 7e3d 3611 8bbd 2346 22be
000002e0: 7d0b e1bd b83a a2b8 b020 1f3d 232d 7d3d
000002f0: 489e 20bd c065 c3bd bcef cdbd c503 44be
00000300: 00a4 46bd c014 9b3d 5217 0abd f381 dabd
00000310: b9ff d6bd ed5f edbd cf94 3dbd cc81 8bbd
00000320: ec32 fcbb 035a 673c 4e7c b0b8 9c77 31bd
00000330: d37b a9bd bae4 0c3c d5ae 32bd c1eb 2d3b
00000340: 2f51 7bbc 7f39 6ebd c38c 6d3d 3f56 2abd
00000350: 9f4c a9bc f4f3 223d b2f9 523a a16a b93d
00000360: 9e32 623d b38d 2dbc 073c ecbd 7a75 03bd
00000370: 11d6 513c aeed af3d 737e 713c 4b57 833d
00000380: c458 4c3c a6c1 0e3e e120 063e 3202 843d
00000390: 6d00 ec3c 394c 87ba fee4 a23d a189 ef3c
000003a0: 92e3 2f3d f9ca bc3a 19f5 b0bd ef37 cb3c
000003b0: f29a 03be 0deb 6b3d 5bf3 e6bc daac 63bc
000003c0: 19eb 0cbc 4654 ac3d 1dec 0fbd 90df 173d
000003d0: 0529 1fbc 9c29 17be bb22 643d b0f2 863d
000003e0: 988d 923c be9b 593d 8f47 cbbc c5cd 703d
000003f0: 88fd 60bd 2599 533b 8cb1 81bd 30e9 81bc
-0.021072607 -0.057619017 -0.025171475 -0.11784572 -0.08775177 0.040256925 0.041372404 -0.09131444
-0.08069721 -0.06173412 0.14616768 0.15834026 -0.0797212 -0.18306182 -0.036488406 0.11514534
-0.01673704 0.13755874 -0.13012633 -0.14971551 0.09989448 0.0014973514 0.12585905 0.0754995
-0.05712685 0.088833116 -0.03650349 -0.041488435 -0.1577266 -0.20723258 0.15233365 -0.07502108
-0.060773376 -0.17188732 -0.15076947 0.094651096 0.022744002 -0.06552729 -0.21132721 -0.21308865
0.16726547 0.09644321 0.00050470943 -0.14040552 -0.18822293 0.14995418 0.11312835 -0.024252921
-0.1092538 -0.12817238 0.0005011886 0.100384675 0.030027892 0.02792047 -0.076830655 0.060288467
0.00027874645 0.12862827 -0.002598545 0.033076305 0.08947188 -0.023733249 0.006963129 0.011247793
0.016062034 0.047767594 0.085054815 0.03745916 -0.048347905 -0.054652218 -0.05290836 0.063386604
0.040061858 -0.029061515 -0.046584334 -0.014388264 0.061246693 0.07542854 0.09260993 0.029507384
0.058519498 -0.011862124 0.10600943 0.04559899 0.009226602 -0.018874438 0.00029123214 0.028316148
-0.034085676 -0.032658353 -0.027158007 -0.05855354 0.06098095 0.016339883 0.013926812 -0.122593544
0.053639613 -0.036240887 0.027870668 -0.05173902 0.1341415 -0.1310332 -0.21711484 -0.1995283
-0.095628865 0.29778838 -0.05771568 -0.2141937 -0.19514024 -0.16540669 0.39967912 0.115837276
-0.026793314 -0.15089907 -0.13084158 0.38332823 0.09321336 0.007451828 -0.17820671 -0.19364005
0.28955847 0.10619433 -0.08584357 -0.12256127 -0.2804549 -0.030003062 0.028688077 0.011239371
-0.04638228 -0.13881609 0.015428694 0.012839271 0.02629226 -0.010869065 -0.09678788 0.01963815
-0.14038502 -0.06716606 0.06771133 -0.03634172 0.026874533 -0.015034466 -0.13218175 -0.07785552
-0.044824403 -0.014547264 -0.011623821 -0.020903422 0.1341242 0.096479714 0.05330355 -0.000577648
-0.1313194 -0.22060306 -0.08517342 0.04048788 -0.030059638 -0.16427237 -0.16248956 -0.119543195
0.0949465 -0.02694091 -0.111377165 -0.10265712 -0.1700496 0.16564357 0.007486636 -0.16741613
-0.18719772 -0.21307915 0.17187366 0.048966687 -0.107391976 -0.28986233 -0.34568533 0.059076514
0.06959831 -0.0006003024 -0.019202456 -0.037384104 0.06820371 0.06219565 -0.06790392 -0.15847068
-0.10988519 -7.735699e-05 0.038849533 0.061810624 -0.03921345 -0.09540892 -0.10055491 -0.19142063
-0.048496246 0.07572317 -0.033713646 -0.10669317 -0.10497994 -0.11590562 -0.046284493 -0.06811866
-0.0076965 0.014120582 -8.4154875e-05 -0.04332696 -0.08275571 0.008599455 -0.043623764 0.0026538225
-0.01533918 -0.0581603 0.05799557 -0.041586157 -0.020666419 0.039783433 0.0008048072 0.09053541
0.055224054 -0.010592866 -0.11534887 -0.032094456 0.012807385 0.08590256 0.0147396205 0.06413134
0.012472335 0.13941059 0.1309848 0.06445731 0.028808797 -0.0010322399 0.07953833 0.029240431
0.042941637 0.0014403752 -0.08640499 0.024806945 -0.12852076 0.05759721 -0.028192213 -0.0138961915
-0.0086009735 0.084145114 -0.035137285 0.03707844 -0.00971437 -0.14761966 0.055697184 0.06589258
0.017889783 0.053127043 -0.024814395 0.058789987 -0.054929286 0.0032287326 -0.063326925 -0.015858263

conv2.bias f4 [32]
00000000: a03a dd3d f21f a5be 0c54 c4bc 19b5 d83b
00000010: 9a8c 823e 2993 b3bd 0c9e 553b 6176 dcbb
00000020: e492 a83e bb9a 3dbe 4b29 9ebe 186a ee3d
00000030: 0a39 833e fc37 79b8 4083 7dbc 1fda b43c
00000040: 0a50 ac3e 0cf7 2b3d d07b f3bd ca10 9b3d
00000050: 550a 003e 8d1f 09be 8384 8e3c 6cd2 d0bc
00000060: d26c e9bd 2ada 623e 04ab 553e 5cfb dcbc
00000070: 321f 01bb bf6e 323e 5bd8 973e c2ac d3bc
0.108021975 -0.32250935 -0.023965858 0.0066133854 0.25497895 -0.08768303 0.0032595424 -0.006727979
0.3292457 -0.18516056 -0.3089088 0.116413295 0.25629455 -5.9418366e-05 -0.015473187 0.022076664
0.33654815 0.04198365 -0.1188885 0.07571562 0.12503941 -0.13390942 0.01739717 -0.025490962
-0.11397709 0.22153535 0.20866019 -0.026975326 -0.0019702432 0.17425059 0.29657254 -0.025839213

fc1.weight f4 [120, 800]
00000000: 8f0b 67be 9ba1 2fbe 8ae3 2cbb 6bbd 10bd
00000010: 1d24 36be 2a5f 82be fcec a5bd f589 aebd
00000020: e7ea 833c 33a2 7ebd 2c81 82be d251 8dbe
00000030: eff0 8cbe 3d3a 12be 8c51 9dbc 441e b8bc
00000040: dc77 24be ac52 46be 92c3 8bbd 4900 2bbe
00000050: 94e6 2f3c 0f9f bbbd f70f 9fbd f32d 01be
00000060: b52b 1fbe 03e0 d0bd e756 5dbd 2670 10be
00000070: 811f 0fbd 02d1 12bc ce30 1bbe 9b45 fabd
00000080: e42a 05be 8fb1 e7bd 08db 8d3d 1dd0 7abb
00000090: 80e9 72be de05 3abe af24 81bd 07b0 e53b
000000a0: 0032 f33d dded 8cbd db15 2abe de1f 4fbc
000000b0: 2986 4fbc 0fd1 423d fb6c 85bd d35c dfbd
000000c0: 5881 3fbe 45af 07be 4885 f2bd 9c5b 74be
000000d0: a733 d9bd 4edb 76bd b9d0 98bc c58b c4bd
000000e0: 3049 bcbd cf65 d9bd 26e6 23bd 401c 203d
000000f0: 9029 32bd 7852 a5bd 7f63 a1bd 6955 153b
00000100: 1ec5 953d a234 263d 89fa 8a3d 9f44 ec3c
00000110: d760 0d3e 619f 013e ce75 4d3d de2e b43d
00000120: ab6c 253c 960b 773d 6cef bf3d d775 4e3d
00000130: 2891 74bc b7ba cc3c 5299 1c3c 4fc5 f03c
00000140: cf9e bbbc cad4 313c 23fa cfbc 0814 8ebc
00000150: b1c0 b33a 8f23 af3c ca95 9a3c f75a d23c
00000160: 534a 623c baaf 4d3c aae6 ebbc be56 6d3c
00000170: 6a43 983c a1e6 e9bb b3f5 bc3b b4b0 23bb
00000180: c7b2 b1bc 65dd a33c 9878 b3bc f01d 2a3b
00000190: ed11 02be 7beb f2bd d9dd ae3a a564 27be
000001a0: f37f 5bbe dc06 90bd 93da a0bd 11cd 01be
000001b0: 4ce3 54be 36d1 7cbe f985 513d 2e99 0ebd
000001c0: 6d3a 4ebd 07f4 a4bd 589a 85bd f695 f1bd
000001d0: f546 09be 0dbe bdbc febd ddbb 4ae6 a23d
000001e0: 78fd 7bbe 4c49 6fbe e054 bdbc 44f2 393e
000001f0: 3f0d 963e 1113 05bd 002f 133a a81e b83c
00000200: 31f5 063d 772a 0ebd 14c0 c1bc 7f71 9abc
00000210: e033 38bc c3fa 71b9 5b4b d2bc 20dc 9cbb
00000220: 0896 a03b f803 0b3c 583b f53b fa24 9f3c
00000230: 642d 0abd 100e 713c 9840 e1bb 30f3 a6bc
00000240: a68a c7bc c669 3abc 50b1 e33b 24ab 07bd
00000250: 9025 8ebb 0cba 333c 26be 27be 7a08 57be
00000260: c760 30be e141 00bd 1d43 12bd 38c2 fcbd
00000270: 0da7 48be aaff b3bd 2012 b1bd 8d06 01be
00000280: e3e2 a1bd 0a07 53bd cfe1 093d a6a4 a43c
00000290: 343e 8b3d 7bc2 853d 04d3 093d 8777 da3c
000002a0: 7e2e 713d d52e 163e 2636 ce3d 7e3f 3a3c
000002b0: 4035 f7bc c62c 3f3c 4290 553d 7705 2bbc
000002c0: ee30 b0bc 3134 ab3c 127a 073c f582 eebc
000002d0: 9830 74bc 68a3 0dba eed7 403c 3b34 d63b
000002e0: 5c89 703c dba8 cb3c b7e8 a93c aa3a 693c
000002f0: faed 12bc 0896 94bb e768 e03c f3b1 c83c
00000300: 4c0c a33c c7a2 a03c a9c5 143d 42e5 aebc
00000310: 378d 0c3d 1639 f2bc 582d df3c 412e 7bbc
00000320: 5630 b6ba f463 04bc 7259 01bc 074a 573d
00000330: 2888 993d 85a0 70bd 0aa6 b8bc 5773 823c
00000340: cdcc b6bc faf5 183d 5b06 6fbe a1cc 2bbd
00000350: 9acc 003c 55c9 b9bc 6115 29be 65de 96bd
00000360: 3682 563c f416 bd3d bc86 313c d089 abbd
00000370: 3d28 1abd a662 603c 8c95 663d aea3 753d
00000380: 3d60 bf3c 1811 1e3d b7e7 d43d 6964 613a
00000390: 9080 963a 76d3 663e 1297 81bd 6004 c03c
000003a0: b9b6 883b f468 febc dd9c db3d 3f4a 253e
000003b0: 4cd9 09bb 2a5f cdbd 3963 ee3b c4d6 e93d
000003c0: 6019 453e a74e 893d 8742 bdbc ba73 58bd
000003d0: 8864 fd3d 0d8f 243d 2a1e 223d 1070 b3bc
000003e0: aec1 3d3d 3e2f 6d3d 5420 75bd 202f e53d
000003f0: 1006 da3c 1eda 20bd 79ef 9bbd b438 55bd
-0.22563003 -0.17151491 -0.002638074 -0.035336893 -0.17787214 -0.2546323 -0.08101842 -0.08522407
0.016103221 -0.062166404 -0.25489175 -0.27601486 -0.27527568 -0.14280029 -0.019203924 -0.02247537
-0.16061348 -0.19367474 -0.068244115 -0.16699328 0.010736126 -0.091611974 -0.07766717 -0.12615184
-0.15544017 -0.10198977 -0.054037955 -0.14105281 -0.034942154 -0.008960964 -0.15155336 -0.122203074
-0.13004643 -0.113131635 0.069265425 -0.0038271018 -0.23721886 -0.181663 -0.06305825 0.0070095095
0.11874771 -0.06881306 -0.166099 -0.012641875 -0.012666264 0.047562655 -0.06514927 -0.10906377
-0.18701684 -0.13250454 -0.11841828 -0.23863071 -0.10605555 -0.06026774 -0.018654214 -0.095969714
-0.09193647 -0.106151216 -0.04001441 0.03908944 -0.04349667 -0.0807237 -0.078803055 0.0022786504
0.07312988 0.04057754 0.06786067 0.028841315 0.13806473 0.12658454 0.050161175 0.08798002
0.010096709 0.060313784 0.09371838 0.05040535 -0.014927186 0.024991376 0.009558039 0.02939096
-0.022902874 0.0108539555 -0.02538783 -0.017343536 0.0013714043 0.02137926 0.018870253 0.025678141
0.013811666 0.0125541035 -0.028796513 0.014486013 0.018586833 -0.007138089 0.0057665943 -0.002497715
-0.021691693 0.02000303 -0.02190809 0.0025957786 -0.1270215 -0.118613206 0.0013341262 -0.16346987
-0.21435528 -0.07032558 -0.0785419 -0.12675883 -0.20789832 -0.24689183 0.051153157 -0.034814052
-0.050348688 -0.08054357 -0.06523579 -0.11796181 -0.13405974 -0.023161912 -0.0067670336 0.079540804
-0.2460841 -0.23367804 -0.02311176 0.18158823 0.2930698 -0.032488886 0.00056146085 0.022475556
0.032948676 -0.034708466 -0.02365116 -0.018852947 -0.011242837 -0.00023076967 -0.025670698 -0.004786983
0.0049006976 0.008484833 0.007483881 0.019426811 -0.033734694 0.014712825 -0.0068741553 -0.020379633
-0.024358105 -0.011377757 0.0069486275 -0.033122197 -0.004337974 0.01096965 -0.1638113 -0.20999327
-0.17224418 -0.031312827 -0.035708535 -0.12341732 -0.19594975 -0.087889984 -0.08646035 -0.12600155
-0.07904603 -0.051520385 0.033662613 0.020098042 0.06798974 0.06531235 0.033648506 0.026668323
0.05888223 0.14666303 0.10068922 0.011367677 -0.030176759 0.01166839 0.052139528 -0.010438315
-0.021507706 0.02089891 0.00826885 -0.02911518 -0.014904164 -0.00054030726 0.011770232 0.006536988
0.0146811865 0.02486079 0.02074085 0.014235178 -0.008967871 -0.0045344867 0.027393771 0.024498915
0.019903325 0.019608868 0.036321316 -0.021349553 0.03431436 -0.029568236 0.027243301 -0.015330852
-0.0013899903 -0.008080471 -0.007894861 0.052560832 0.07496673 -0.058746833 -0.022540111 0.015924139
-0.022314453 0.037343957 -0.23342268 -0.041943196 0.007861281 -0.02267901 -0.16512062 -0.07366637
0.013092568 0.092328936 0.010835346 -0.08375895 -0.03763603 0.013695395 0.056294963 0.05997055
0.02336132 0.03859052 0.103957586 0.0008598031 0.0011482406 0.22541603 -0.063276425 0.023439586
0.004172173 -0.031055905 0.10723279 0.16141604 -0.002103406 -0.10027917 0.007275012 0.114179164
0.19247961 0.06704455 -0.023103012 -0.05284474 0.123726904 0.040175486 0.039579548 -0.021904022
0.046327285 0.05790638 -0.059845284 0.11190629 0.026614219 -0.039270513 -0.07614035 -0.05205603

fc1.bias f4 [120]
00000000: 0d3b 3c3e 1440 3d3e faa7 0a3d 95fe a8bc
00000010: ec8b be3c 414c 333d f29e 133e a607 45ba
00000020: 98b1 94bc 5b56 113c 0f21 693c f459 dd3d
00000030: a60b 9c3e ab60 b03b f09a 83bb 8e6f 2cbd
00000040: 879e cebd 3a59 4e3c 6176 06bd bf5b a8bc
00000050: 6ac4 b9bd b451 26bc d5d0 4abe 6fdb 5abd
00000060: 7d7c 633d 1707 febc c937 f7bc efee 3b3e
00000070: ee25 7a3c 2cd5 823e 78ac 89bc 4837 ac3e
00000080: 2900 bdbd c27d bf3b 29f3 b3bc c0cc c33d
00000090: 1074 8fbd c237 2a3e f34e 1abd 7f9b 68bc
000000a0: 18fd 1dbd 0a5d 743e 736c 6abd 8e32 aa3d
000000b0: bde6 eebc 4ac6 53ba c661 3a3a a8b7 af3e
000000c0: db7b b13e 4cb8 f0bc 2b32 a23e e332 3bbd
000000d0: ff96 a73c de99 debc ad34 17bd 34ab 143e
000000e0: 4817 8abc 768a 9fbc a10c c43d 708b a0bc
000000f0: 8272 82bd 39b9 ce3b f921 7f3d 4add 9c3e
00000100: d726 f9bc 144c 79bc 2964 cbbb 260e a939
00000110: beee 173e def8 5f3d fa94 7bbd 908e 1e3e
00000120: be57 9c3e edab 1f3d 373f aa39 aba6 643e
00000130: 4271 85bd 0f1b ab3e 4eb8 a1bc 7414 36bb
00000140: 256f 143d 0128 46bc 1f0c 2fbe 9792 bb3b
00000150: 5249 ff3d c27f 20bd 908b a7bd 90b8 a7bd
00000160: 4eb2 9b3c 79e2 01bd cc75 04bd 5208 18bd
00000170: fe4c 0a3c b636 61bd 57a4 70ba 5e98 403e
00000180: 62c5 1b3e 45e6 64bb b543 263d 09fa 983e
00000190: 5e43 06bd f116 003e 28b0 59bd bb06 5a3e
000001a0: d7e5 9c3d 5189 793c ed9c 05bd 567c 8a3e
000001b0: e70d 943e d849 df3e a3e2 78bc 178e 7d3c
000001c0: 50bc 5f3d 895e 8bbc 1b6f 3d3e 4e13 8cbd
000001d0: b547 d3bd f2c6 00bd 687b 06be f8d4 89bb
0.18381901 0.18481475 0.0338516 -0.020629207 0.02326008 0.043773893 0.14416102 -0.00075160933
-0.01815109 0.008870686 0.014229073 0.10808173 0.30477637 0.0053826175 -0.0040162727 -0.042098574
-0.100888304 0.012594515 -0.03282774 -0.02055156 -0.09070666 -0.0101513155 -0.19806226 -0.053431924
0.055538643 -0.03100924 -0.030177968 0.18352865 0.015267832 0.25553262 -0.016805872 0.33635926
-0.09228546 0.005843849 -0.021966534 0.09560537 -0.07004559 0.16622832 -0.037672948 -0.014197229
-0.038571447 0.23863617 -0.05723233 0.08310424 -0.029162759 -0.00080785586 0.00071099063 0.34319806
0.34664807 -0.029384755 0.316789 -0.045702826 0.020457743 -0.027172979 -0.03691547 0.14518434
-0.016856804 -0.019475203 0.09572721 -0.019597739 -0.06369497 0.0063087014 0.06228826 0.3063758
-0.030414028 -0.015215892 -0.0062070084 0.00032244733 0.14837167 0.054680698 -0.061421372 0.15484071
0.30535692 0.03898232 0.00032472025 0.22329204 -0.06515743 0.33419082 -0.019741204 -0.0027783187
0.03623881 -0.012094499 -0.17094468 0.005724262 0.124651566 -0.03918434 -0.08180916 -0.081894994
0.01900592 -0.03171012 -0.032338902 -0.03711731 0.008441208 -0.054983817 -0.0009179762 0.18808123
0.15212014 -0.003492729 0.040591914 0.29878262 -0.03277909 0.12508751 -0.05314651 0.2129163
0.07661026 0.015230493 -0.03262036 0.27047986 0.28916857 0.43611026 -0.015190753 0.015475771
0.05462295 -0.017012851 0.18499415 -0.068396196 -0.103164114 -0.03143973 -0.13133013 -0.004206296

fc2.weight f4 [84, 120]
00000000: 11d1 853c b754 bb3d 43d5 83be a59b 1c3d
00000010: d9c0 1ebe 39ce 3a3d 0170 023b d321 2f3d
00000020: 4f84 22bd c1a0 a5bd 3c8b ca3c 5903 30be
00000030: b545 4abd 1d83 7bbd 829e a7bc 081f 34bc
00000040: f3a4 15bd 9974 363d e472 ac3d 7d9c 16be
00000050: 365f ebbd 305d 7cbc 4f38 7fbd 5cf7 6a3d
00000060: a3a4 513d 0a76 9f3d 19a1 a63d 6001 613d
00000070: 9f43 4cbd 5075 53bd 12d8 973d 3fd5 86bd
00000080: 9c99 e3bd f467 1d3d 1038 13bc 39dc 5a3d
00000090: 35d3 fc3d d075 ef3b f0fb 24bc 6e89 febc
000000a0: 98df 1e3d 0932 333e ae5b c1bd 5fe3 18be
000000b0: 5a1a 39bd c8ef 1b3e 2698 a8bd cad0 3cbc
000000c0: a7ad 313e 5fd0 45bd 2f59 d23c f8e0 8abd
000000d0: 4362 de3d 001f 5d3d e87a 18bd b115 2d3d
000000e0: aa6b de3d d8b7 b0bd b542 5cbd 204e 62bb
000000f0: 31db a1bc 9628 963d 9743 78bd c424 ecbd
00000100: 0a41 9d3d 806a 393a a2f0 a73d d087 3fbc
00000110: 3fee 5abe fb36 08be 727e d93c 2695 2f3e
00000120: 68e8 8bbc 0e4d 40ba fca6 82bd f28a 153e
00000130: ae85 093e 1d8d b93c d4f5 663d bd65 4cbd
00000140: d5d4 6ebe 901f 4a3c ebee 31bd 5508 8dbd
00000150: 6ea7 a93c 0868 ee3c 52f9 04bd 70f7 2bbc
00000160: 807e 68bc e33d 3ebe 2115 d73c 5429 58bd
00000170: 548b 0f39 9c6a b83d e2a6 a53d 3187 b63d
00000180: f716 173e 2174 90bd 25e6 4b3c e69b 14be
00000190: 920c 043d 25d5 99bd c73e 6fbd 9d30 2a3d
000001a0: 94dd 33be de04 36bd 2015 783c 1499 dc3b
000001b0: cb37 d8bd 0a30 aabd 324a fe3c ac75 9abc
000001c0: 6d0a c33d 408a 97bc 66cc 74b9 2842 6e3c
000001d0: 6d8c f6bd a375 23bc 5190 463d 8d64 53bd
000001e0: 5d73 34be fcdf 4a3d 35b7 86bd f403 8ebe
000001f0: f016 e7bc b5ea 4dbe 892e 2bbe 0153 5a3d
00000200: f574 903d 7aee 99bc 9c6d d83c a5cf ae3b
00000210: 9db0 83bd 3734 6e3d d0aa 593d 8f8c e63c
00000220: 4157 663d dd79 303a 034a d03c e877 87bd
00000230: 82f7 dcbd 88b9 1bba c56e 8f3d 2bc1 43bd
00000240: cbfe 65bd 3e46 e33c 03b6 a03c a2c3 b03d
00000250: 0a20 aabd 6566 763c ceca 463c 6d67 15bd
00000260: 7ef8 04be 6df4 5a3c 0ab6 93bd ac26 fc3c
00000270: 38ff 42be fb27 a33d 8f4a e73c 8e87 cc3d
00000280: bec1 0abd 2236 093e cc83 903b d59a 033e
00000290: 2c9d 0b3d c528 933d 9386 5b3d e565 d03c
000002a0: 9a5e e9bb 097a 15bd 0bdd ab3d a49c 31bd
000002b0: e7d3 b8bd 7b2e aabd ea75 40bd 01da 93bd
000002c0: 97ed 243d d7b8 fbbc 5df8 44be 4c73 fb3c
000002d0: 0cd5 8d3d 507d 58bd fe7b dfbd 36b3 26be
000002e0: 5b61 a3bd d525 7dbc ed3b 613d 07e4 afbc
000002f0: 5047 97bd e9bc 85bc e73b 783d 6caa 843d
00000300: a3cd 3b3e 722d 40be e83a d13c 407c 523e
00000310: f7c8 cdbd 6a65 dd3d 28d5 b43d d2aa 54bd
00000320: fc39 0d3e 4fce 0dbd 5b69 75bd b969 373d
00000330: 11f9 733d b8ac 90bd 594f af3d ae65 37bd
00000340: 952b 1c3d da1b 1dbe c9e7 253d e3c1 0ebd
00000350: e9b0 2abe c74e e7bb 8d49 02bd cb1e 8d3d
00000360: 5edc 01be ec7b b7bd a188 b43d fd40 b63d
00000370: 6c26 9a3d cc34 eabd a6c1 0fbe 0dc1 05be
00000380: 5142 9b3c 6f30 893d 3eb7 31bd ca75 f03d
00000390: 3316 91bb 5ec3 063e fadd 4cbc 6e22 b93d
000003a0: 8cd4 3bbe 6cc5 d3bb b3a0 d03b afd9 473d
000003b0: d22f 53bd 20e8 b9b9 7678 9ebc 03a0 953d
000003c0: 57c9 3b3e 5af6 41bd b58c 27be 5bf1 e0bd
000003d0: 3824 21be 4e56 f63d a2cb 2b3e fb19 653c
000003e0: 7b45 243c 5a2d a83d 4437 d63c 5f99 d53c
000003f0: 9f63 743e c7c3 cb3c c9d1 79bd fa9e 5f3d
0.016335042 0.091470174 -0.25748643 0.03823437 -0.15503253 0.045606826 0.0019903185 0.042756867
-0.03967696 -0.08087302 0.024724595 -0.17188777 -0.049382884 -0.061404336 -0.020461325 -0.010993727
-0.03653426 0.04454479 0.08420351 -0.14708133 -0.114927694 -0.015403077 -0.06230956 0.057364807
0.0511824 0.07786186 0.08136196 0.054932952 -0.049869176 -0.05162555 0.07414259 -0.06583642
-0.11113283 0.038429216 -0.008985534 0.053432677 0.12344972 0.0073077455 -0.010069832 -0.031071391
0.038787454 0.17499556 -0.09441315 -0.14930485 -0.045191146 0.15228188 -0.08232145 -0.011524389
0.173514 -0.04829442 0.025677292 -0.06781191 0.10858586 0.053984642 -0.037226588 0.042257015
0.10860379 -0.086288154 -0.053774554 -0.003453143 -0.019757839 0.0733196 -0.060611334 -0.1153045
0.07678421 0.00070730597 0.08200194 -0.011690095 -0.21379946 -0.13302223 0.026549552 0.1714674
-0.017078593 -0.0007335701 -0.06379506 0.14603785 0.13429901 0.022650296 0.056386784 -0.049901713
-0.23323376 0.012336627 -0.04344074 -0.06886355 0.02070972 0.02910234 -0.032464333 -0.010496005
-0.014190316 -0.18578295 0.026255192 -0.05277379 0.00013689446 0.09004709 0.08088471 0.089125045
0.14754854 -0.070534 0.012445007 -0.14512596 0.03223855 -0.07511357 -0.05840948 0.041550267
-0.17564994 -0.044438235 0.015141755 0.0067321155 -0.10557517 -0.08309944 0.031041238 -0.018854938
0.09523473 -0.01849854 -0.00023345798 0.01454214 -0.12038503 -0.009976777 0.048477475 -0.051609565
-0.17622133 0.049530014 -0.06577913 -0.2773739 -0.02820918 -0.20109065 -0.1671697 0.053301815
0.07053558 -0.018790472 0.026419453 0.0053348118 -0.06430171 0.058155265 0.053141415 0.028143195
0.056235556 0.0006732026 0.025425917 -0.06614667 -0.10789396 -0.0005940427 0.070035495 -0.04779164
-0.056151193 0.027743455 0.01961804 0.08631064 -0.08306892 0.015039061 0.012133313 -0.036475588
-0.12985417 0.01336394 -0.072124556 0.030780159 -0.1904267 0.0796661 0.028233794 0.099867925
-0.033876173 0.13399556 0.0044102427 0.12852032 0.034085438 0.071855105 0.053595137 0.025439212
-0.007121873 -0.036493335 0.0839177 -0.043362275 -0.09024792 -0.08309647 -0.04698745 -0.07219315
0.040265646 -0.030727787 -0.19235368 0.030694626 0.06925401 -0.052853882 -0.109123215 -0.16279301
-0.079775535 -0.015450914 0.05498879 -0.021471037 -0.07386649 -0.016325431 0.060604002 0.06477818
0.18340163 -0.18767336 0.025540784 0.2055521 -0.100480966 0.10810359 0.08829719 -0.05192072
0.1379165 -0.03462058 -0.059914928 0.04477856 0.0595637 -0.070641935 0.08560056 -0.044774704
0.0381275 -0.15342656 0.04050425 -0.034852874 -0.16669048 -0.0070589515 -0.031808425 0.06890639
-0.1268172 -0.08959183 0.088151224 0.08899114 0.0752686 -0.114358515 -0.14038715 -0.13061924
0.01895252 0.06698691 -0.043387644 0.117412165 -0.004427695 0.13160464 -0.012504095 0.0903977
-0.18342799 -0.0064627435 0.006366813 0.048791584 -0.051559277 -0.00035458896 -0.01934455 0.073059104
0.18338524 -0.04735408 -0.16362269 -0.10983535 -0.15736473 0.1202818 0.16776899 0.013983245
0.010026331 0.08211775 0.0261494 0.02607411 0.23866127 0.024873627 -0.060991082 0.05459497

fc2.bias f4 [84]
00000000: 64df 703e 173b ad3e 2728 303e 4763 92bd
00000010: 626b d43d 6a0a 91bd 8e66 f43e b4b3 3c3d
00000020: ba0f 3e3d 769e 98bd d129 3b3d ac7a 413e
00000030: 86a5 183e 593f 0dbe 4270 43bd 9c76 1c3e
00000040: 4247 323e 7dba 7c3c e6e9 7e3d 2474 043e
00000050: 55b5 3dbe 7ccb 45bd 8458 e43d 741c 9b3e
00000060: ee65 6c3e 42a1 e7bd 1c75 8bbd 68ef 9e3c
00000070: 453c 5f3e 9cbc 12be 4cc0 ffbd 841d 17be
00000080: 907f 583e 7adf 31be c09c ae3d 96c8 aa3d
00000090: 9d64 92bd 630f aa3e e48a 9a3e f300 043e
000000a0: fd40 8c3e 0ef0 32bd c1ed 8e3e a27f 22be
000000b0: 6dd8 573e ed6e cdbd 763c 833d 6081 2e3e
000000c0: ed22 883e bfbf 9c3e 08ba c8bc 269b 373b
000000d0: c78b 6dbd 4eff ab3d aa96 a239 cb95 57bc
000000e0: 83e0 7b3d dbac 363e c087 d83d 7b64 1dbe
000000f0: 0e38 bebd 2a87 4bbd e6e8 2b3d 8068 d23d
00000100: b096 d23e 87af 81bd b674 87bc 23ca ee3d
00000110: 5c08 c1bd abaf 233e 90cc 3a3e 8569 d43c
00000120: f70c f63d 27d5 a6bd 510d 723e a5d1 093e
00000130: eae9 2bbd 5abe 813d 10df d4bc 4596 5b3e
00000140: fd9f ce3c 282d fb3c 43a6 953e 4b51 dcbc
0.23522717 0.33834144 0.17202817 -0.07147842 0.10372044 -0.070820644 0.47734493 0.046069816
0.046401717 -0.07452099 0.045694176 0.18894452 0.14906892 -0.13793696 -0.04771448 0.15279621
0.17409995 0.015425322 0.06223478 0.12934929 -0.18526204 -0.04828976 0.111496955 0.30295146
0.23085758 -0.11310054 -0.06809446 0.019401267 0.21800335 -0.14329761 -0.124878496 -0.14757353
0.21142411 -0.17370406 0.085259914 0.0833904 -0.07148097 0.33214864 0.3018409 0.12890987
0.27393332 -0.043685965 0.27915767 -0.15869 0.21078654 -0.10030923 0.064080164 0.1704154
0.26589146 0.3061504 -0.02450277 0.002801606 -0.05799463 0.08398305 0.000310113 -0.013158272
0.061493408 0.17839377 0.10572767 -0.15370362 -0.09288035 -0.04968945 0.041970156 0.10273838
0.4113059 -0.06332307 -0.016535144 0.11659648 -0.094254225 0.15984981 0.18242097 0.025929222
0.120141916 -0.08146124 0.23637892 0.1345888 -0.041971125 0.06335135 -0.02598527 0.21444042
0.025222773 0.03066118 0.2922841 -0.026894232

fc3.weight f4 [10, 84]
00000000: 9f93 54be 07e7 d3be 05c8 f7bd fbe5 643d
00000010: a56c 34bd b753 cfbd 144b 9bbd 8d10 36be
00000020: 3494 abbc 83ee 653e 4b58 bf3c 8799 383d
00000030: 8c24 45be 9026 0e3d d63c 76bb c9e2 c33d
00000040: 6d15 ca3b e6ff 58bd a4c7 f43c 369b d1bd
00000050: 8492 3a3e a9ea 00be 2976 1c3b d114 d53d
00000060: e268 593d 1a6d 093c 682f ffbd 4451 ffbd
00000070: 48bc b53d 1ffa efbd ec28 433d 5d4f 1d3d
00000080: 9e8f 163e b4b7 c73b f4d0 c83d ad56 98bd
00000090: 15b0 d1bb 6821 04be c926 3abb c0a2 723d
000000a0: 2351 36be 5376 2c3d de73 2a3d 82c5 b6bd
000000b0: 21b1 6f3c ff86 1d3e 8d47 82be 50d5 103e
000000c0: 4155 40be 7d0a 5dbe bc00 7a3c 604e 823d
000000d0: f53e 88bb 85a8 71bd b482 943d 3a59 d5bd
000000e0: 47e7 8f3d 2ef4 61bd 3f46 f9bd 8470 b3bd
000000f0: 6e4e 0cbe 3610 8e3d ba35 cdbd 0e4a b93d
00000100: 9851 b0be 7286 b33d 940f ac3d ae77 24bd
00000110: abda f7bc a7bd a1bd cb06 033e a487 0f3e
00000120: 3965 6abe cd7a 61be 23b1 01bd 99e9 053e
00000130: fbfb 4fbd 5fe8 81be 059c dcbd 40b0 0d3e
00000140: bef5 babd 0dfd 85bd b21c 03be d94a f03c
00000150: 95de cbbb 43fd 89be c2b8 c7bd 0172 c63d
00000160: efab 0c3e 29a1 b63c b49f 9fbe 87c5 cf3c
00000170: 76e2 633d 29fa cd3a 2b64 62be c181 25be
00000180: 09d1 b03c 929c 62bd 9068 e83d 57ca dc3d
00000190: 12c9 32be 1efc 0dbe 767b f53d 1399 3abd
000001a0: 8816 423b d2a3 c4bc a751 9f3d 6e3e 7fbe
000001b0: bbdf a2be 5cac c5bd 40ee 64be 9a6e c1bd
000001c0: a180 32be 0704 143e 89e2 90bd c789 863d
000001d0: 0d13 16be 2f61 263e 9f2e 423d 7b1e 143e
000001e0: 6055 babd 87c5 77bd be99 933d e7a0 8f3d
000001f0: 58a9 abbd 1ce6 30be c054 bdbd 2fe3 1f3e
00000200: 32ba 46be 2bf0 29be 5da4 9c3d 6a63 15bd
00000210: 76e2 86be 9a61 8cbe 6e6b 18be 34b4 8dbc
00000220: 5f68 093e 8b10 59bc 1208 283d 6e74 113d
00000230: f100 bf3d 8f66 6abd 97a8 ea3b eb50 26be
00000240: e945 433d 428f a1bd 5c65 12bd 023b 723d
00000250: c705 14ba 5f14 4cbd c1bd 76bd 14f0 3c3d
00000260: 00c5 163b 6429 29be 8adb 9f3d e4e9 923d
00000270: dea7 0ebd 84be 3b3e 0105 503c 1586 69be
00000280: 4ca8 ad3d d4e2 993d 90e9 aabd 0623 8c3d
00000290: a597 fb39 d656 78bd 9502 69be 4c71 c03b
000002a0: 20cd 40be 31e1 5b3d 2b34 103e 635b f8bc
000002b0: 8fd5 33bd 5453 c7ba a293 03be ebef 73bd
000002c0: 1161 e33d fe74 66bd 5455 6a3e 35ed a03c
000002d0: 5043 18be c008 54bd 1450 73bd e81c 813c
000002e0: 310e aa3d c7a3 f93d 2252 6bbd 2333 e63c
000002f0: bddd 253e 199f 5f3e 7c58 34be 95c9 1b3c
00000300: df93 0e3e 0b5e 31bd 3737 ed3d e28c 34be
00000310: bf75 a3bd 67df 75bc 1bfb 03be 8748 9f3d
00000320: 3a36 003e 058a 0fbe 9657 e5bd 2ada 223c
00000330: a7aa a3bd b7c9 69be 0a8d dabd d54d 16be
00000340: b616 3a3d 6a8a de3d c418 86bd 817b 763d
00000350: 88e1 823c bb31 0fbe ba19 043e a7cc ed3d
00000360: 084e fd3d e348 a0bd 2200 bcbd 61fa 96bd
00000370: c12c 4dbb 5896 3fbd ee8e 833d 1123 7e3c
00000380: 710a b7bc 9666 d4bd 501a 43bd 6f83 353c
00000390: 7307 b2bd 9fc3 fbbd 7389 2bbe 5915 bbbc
000003a0: 57d6 943d e0eb 92bd cfb5 54bb a707 a83d
000003b0: abb9 a4bd 7161 7ebb 035c aebd 6742 04bc
000003c0: 7bb5 f1bc d945 f8bd c4e1 46be 2d00 38bd
000003d0: 3d3e 27be 3a09 963c 69ae 24be e176 aebd
000003e0: 7c6d c2bc 9746 8ebd 1e7a 823d 12b4 eabd
000003f0: 8073 863d ca7a 463d 2dba 093c 5d63 3cbd
-0.20759438 -0.41387197 -0.120986976 0.05588339 -0.044048924 -0.10123389 -0.075826794 -0.17779751
-0.020944692 0.22454266 0.023357531 0.04506829 -0.19252223 0.034704745 -0.0037572882 0.0956474
0.006167105 -0.05297842 0.029880352 -0.10234682 0.18219954 -0.12589516 0.002387414 0.10404361
0.05307854 0.008387828 -0.12460214 -0.12466672 0.088738024 -0.11717629 0.047646448 0.038405765
0.14703223 0.006094897 0.0980548 -0.07438407 -0.0063991644 -0.12903368 -0.0028404465 0.05923724
-0.17804389 0.04210503 0.041614406 -0.089243904 0.014629633 0.15383528 -0.25445214 0.14143872
-0.18782522 -0.21586032 0.015258964 0.06362605 -0.0041578957 -0.058998603 0.07251492 -0.10417409
0.070265345 -0.05516451 -0.121716015 -0.08761695 -0.13701794 0.06936686 -0.10020013 0.09047328
-0.3443725 0.08765878 0.08401409 -0.040153198 -0.030255636 -0.078975014 0.1279556 0.14016587
-0.22890176 -0.22019501 -0.03166307 0.13077392 -0.050777417 -0.25372598 -0.10771946 0.13836765
-0.09128903 -0.06542406 -0.12803915 0.029332565 -0.006221602 -0.26951036 -0.09752037 0.09689713
0.13737462 0.022293644 -0.3117653 0.025362743 0.05563589 0.0015714812 -0.22108524 -0.16162778
0.02158405 -0.0553251 0.11348069 0.10780781 -0.17459515 -0.13865706 0.11986439 -0.04555614
0.002961548 -0.024003897 0.07779246 -0.24926159 -0.31811318 -0.096520156 -0.2235651 -0.09444924
-0.1743188 0.14454661 -0.07074458 0.06569248 -0.14655705 0.1624801 0.047407743 0.14464752
-0.09098315 -0.06049111 0.07207058 0.070131116 -0.08381909 -0.1727528 -0.092446804 0.15614007
-0.19406965 -0.16595523 0.07648537 -0.03647176 -0.2634465 -0.27418214 -0.14884731 -0.017297842
0.1341872 -0.013248573 0.04102332 0.035511427 0.093263514 -0.057226714 0.0071612108 -0.16241805
0.047674093 -0.078886524 -0.035741195 0.059138305 -0.0005646613 -0.049824115 -0.060239557 0.046127394
0.0023005605 -0.16519696 0.07805546 0.07173517 -0.03482806 0.18334395 0.0126965055 -0.22805054
0.08479366 0.07513967 -0.0834533 0.06842618 0.00047987435 -0.06062969 -0.22754891 0.005872881
-0.18828249 0.053681556 0.140824 -0.030317014 -0.043904837 -0.0015207329 -0.12849286 -0.059554975
0.11102498 -0.056263916 0.22884113 0.01964436 -0.14869428 -0.051766157 -0.05940254 0.015760854
0.08303488 0.12189441 -0.057451375 0.028100556 0.16197868 0.21838035 -0.17611879 0.00950851
0.13923596 -0.043302577 0.11582797 -0.17631868 -0.07981443 -0.015006877 -0.12888758 0.07777505
0.12520686 -0.14017494 -0.11198346 0.00993971 -0.07991534 -0.22830854 -0.10671432 -0.14678128
0.045431815 0.10866244 -0.065476924 0.060176376 0.015976682 -0.13983814 0.12900439 0.116113
0.12368399 -0.07826402 -0.09179713 -0.07371975 -0.0031307193 -0.04677424 0.06423746 0.01551129
-0.022343846 -0.10371129 -0.047632515 0.0110786995 -0.08692827 -0.12293171 -0.16751651 -0.022837328
0.072674446 -0.07173896 -0.0032457 0.082045846 -0.08043226 -0.0038815404 -0.085136436 -0.008072472
-0.029505482 -0.121226974 -0.1942206 -0.044922043 -0.16332336 0.018314946 -0.16082157 -0.08518768
-0.023733847 -0.06947058 0.06370948 -0.11460127 0.065649986 0.048456945 0.008406204 -0.045993198

fc3.bias f4 [10]
00000000: 4217 4cbe 2f28 98be 49cd d8bd bd1a 2c3d
00000010: 4d8d b33e 4d16 5cbd abae 433d e03e 653c
00000020: be4f 773e a789 c9bd
-0.19930747 -0.29718158 -0.1058603 0.042017687 0.3506874 -0.053732205 0.047774 0.013992041
0.24151513 -0.09840708
